…
Munch({'optimizer': Munch({'type': 'AdamW', 'kwargs': Munch({'lr': 0.001, 'weight_decay': 0.005, 'betas': [0.9, 0.95]})}), 'scheduler': Munch({'type': 'CosLR', 'kwargs': Munch({'epochs': 1000, 'initial_epochs': 101})}), 'model': Munch({'name': 'ExplicitMLP', 'input_encoding': True, 'encoding_dim': 16, 'embed_dim': 64, 'depth': 6, 'mlp_width': 256, 'num_frequencies': 200}), 'generation_frequency': 5001, 'validation_frequency': 10, 'batch_size': 128, 'epochs': 1000, 'gradient_clip': 10})
2023-04-27 00:35:28,995 - INFO - ==========================================================================================
Layer (type:depth-idx)                   Output Shape              Param #
==========================================================================================
ExplicitMLP                              [128, 200, 4]             --
├─GroupwiseProjection: 1-1               [128, 14, 64]             --
│    └─ModuleList: 2-1                   --                        --
│    │    └─Linear: 3-1                  [128, 4, 64]              128
│    │    └─Linear: 3-2                  [128, 5, 64]              128
│    │    └─Linear: 3-3                  [128, 5, 64]              128
├─MLP: 1-2                               [128, 256]                --
│    └─Linear: 2-2                       [128, 256]                229,632
│    └─ReLU: 2-3                         [128, 256]                --
│    └─Dropout: 2-4                      [128, 256]                --
│    └─Linear: 2-5                       [128, 256]                65,792
│    └─ReLU: 2-6                         [128, 256]                --
│    └─Dropout: 2-7                      [128, 256]                --
│    └─Linear: 2-8                       [128, 256]                65,792
│    └─ReLU: 2-9                         [128, 256]                --
│    └─Dropout: 2-10                     [128, 256]                --
│    └─Linear: 2-11                      [128, 256]                65,792
│    └─ReLU: 2-12                        [128, 256]                --
│    └─Dropout: 2-13                     [128, 256]                --
│    └─Linear: 2-14                      [128, 256]                65,792
│    └─ReLU: 2-15                        [128, 256]                --
│    └─Dropout: 2-16                     [128, 256]                --
│    └─Linear: 2-17                      [128, 256]                65,792
│    └─Dropout: 2-18                     [128, 256]                --
├─Linear: 1-3                            [128, 800]                205,600
==========================================================================================
Total params: 764,576
Trainable params: 764,576
Non-trainable params: 0
Total mult-adds (M): 97.87
==========================================================================================
Input size (MB): 0.11
Forward/backward pass size (MB): 3.31
Params size (MB): 3.06
Estimated Total Size (MB): 6.48
==========================================================================================
…
