…
Munch({'optimizer': Munch({'type': 'AdamW', 'kwargs': Munch({'lr': 0.001, 'weight_decay': 0.005, 'betas': [0.9, 0.95]})}), 'scheduler': Munch({'type': 'CosLR', 'kwargs': Munch({'epochs': 500, 'initial_epochs': 25})}), 'model': Munch({'name': 'ImplicitMLP', 'input_encoding': False, 'encoding_dim': 16, 'embed_dim': 64, 'depth': 7, 'mlp_width': 256}), 'generation_frequency': 5001, 'validation_frequency': 10, 'batch_size': 16, 'epochs': 500, 'gradient_clip': 10})
2023-04-26 15:04:11,213 - INFO - ==========================================================================================
Layer (type:depth-idx)                   Output Shape              Param #
==========================================================================================
ImplicitMLP                              [16, 200, 4]              --
├─GroupwiseProjection: 1-1               [3200, 15, 64]            --
│    └─ModuleList: 2-1                   --                        --
│    │    └─Linear: 3-1                  [3200, 4, 64]             128
│    │    └─Linear: 3-2                  [3200, 5, 64]             128
│    │    └─Linear: 3-3                  [3200, 5, 64]             128
│    │    └─Linear: 3-4                  [3200, 1, 64]             128
├─MLP: 1-2                               [3200, 256]               --
│    └─Linear: 2-2                       [3200, 256]               246,016
│    └─ReLU: 2-3                         [3200, 256]               --
│    └─Dropout: 2-4                      [3200, 256]               --
│    └─Linear: 2-5                       [3200, 256]               65,792
│    └─ReLU: 2-6                         [3200, 256]               --
│    └─Dropout: 2-7                      [3200, 256]               --
│    └─Linear: 2-8                       [3200, 256]               65,792
│    └─ReLU: 2-9                         [3200, 256]               --
│    └─Dropout: 2-10                     [3200, 256]               --
│    └─Linear: 2-11                      [3200, 256]               65,792
│    └─ReLU: 2-12                        [3200, 256]               --
│    └─Dropout: 2-13                     [3200, 256]               --
│    └─Linear: 2-14                      [3200, 256]               65,792
│    └─ReLU: 2-15                        [3200, 256]               --
│    └─Dropout: 2-16                     [3200, 256]               --
│    └─Linear: 2-17                      [3200, 256]               65,792
│    └─ReLU: 2-18                        [3200, 256]               --
│    └─Dropout: 2-19                     [3200, 256]               --
│    └─Linear: 2-20                      [3200, 256]               65,792
│    └─Dropout: 2-21                     [3200, 256]               --
├─Linear: 1-3                            [3200, 4]                 1,028
==========================================================================================
Total params: 642,308
Trainable params: 642,308
Non-trainable params: 0
Total mult-adds (G): 2.06
==========================================================================================
Input size (MB): 0.01
Forward/backward pass size (MB): 70.55
Params size (MB): 2.57
Estimated Total Size (MB): 73.14
==========================================================================================
…
